backend/saved/BPR-Jan-26-2023_09-24-56.pth (torch, 826233 bytes, 1 tensors)

user_embedding.weight f4 [77, 64]
00000000: 9b96 85bd f52c b5bc 3032 16bd 4a6e 553d
00000010: 6ea7 163d f389 893d 341d d83d 282b 843d
00000020: 2d56 c93c c49b 75be 8110 6c3c 7286 8dbc
00000030: 01d1 153e d526 333e db23 1d3e 63e5 6cbd
00000040: 900e 633c 8c98 ad3d 7611 b93d 65cf 223e
00000050: bd7e 533e 2d73 16be 3e29 9cbd 7ce3 8dbb
00000060: 871f 743e 8eea e63d a869 07be 181e 44bd
00000070: e542 41bd 31ea 433d 8826 01be ab2b 74bd
00000080: 1355 c63d 8dfd c6bd 3a21 263e 4c99 2dbd
00000090: 4f3e 09be 1442 d0bd fae3 5e3d b40a 53be
000000a0: 442a ffbd 3024 e7bb 2a54 233e 3a90 f5bd
000000b0: 3684 fd3d 226f c6bd 9d77 d0bb 1fe9 0f3d
000000c0: 3f80 e6bd 35b2 e4bc 21e3 80bc c743 d33c
000000d0: 9a91 5f3d a1fe 213e 4d83 483c e8ec 61be
000000e0: b5a4 663c 73d5 983d 2773 58be 3bf5 e3bd
000000f0: 661e c3bd 5ce0 333d daee 8e3d 6869 0a3d
00000100: e0e7 443a d216 89bd e793 833e 1bf9 b43c
00000110: 7ad9 e9bd 0320 003d e478 d2bd 4b85 c9bd
00000120: 9540 193e 2894 52be fdbe ebbd c28d 22be
00000130: b56a 4f3d 3345 273c 0794 7dbb 469b c63c
00000140: 20b6 e13d fa97 483d 0519 d13c 12f7 40be
00000150: 39e2 073e 4e24 4b3e c8bb e33d c8b1 aa3d
00000160: dba5 7cbd 80b1 e6bc 3b32 f83d ecc2 e53d
00000170: 6eda db3d cc74 12bd 2f0e f63b 523f 883c
00000180: 2241 16be 1ee3 5cbe d826 633d e5b8 17bd
00000190: 3b90 9b3c 585d 223e 1543 8c3c dd8f a2bd
000001a0: 7714 023d 2503 c33d 26ac 8c3d 6c77 b63d
000001b0: 3013 913d 98c1 6b3d adba cbbd 4047 8cbe
000001c0: 08c7 3d3e 369f dfbc 5cea 83bd a60c 7f3d
000001d0: 2b0e 5dbe de74 013e 9d28 7cbe 0f57 bc3c
000001e0: db09 05bc 767a 1a3e 4d26 043e 7f72 033d
000001f0: e71d c1bc 5d34 aa3d c9f8 11bd 3295 8fbd
00000200: 1945 b63c 36cd 323d 78b8 fabc a9cc 0ebe
00000210: 203b fdbc 2a5c 85bc 4d89 83be e8a9 0ebe
00000220: 2451 aa3d 9a8b 6bbd b7cf cfbd 34de bb3d
00000230: a9ca 6fbe 21c1 583e a6f3 8d3e 877a 033d
00000240: 0542 873d 9acc 5cbd 7880 113e 0c6e 333d
00000250: 09b7 a53d ee95 10bd 7862 fabd 41ad b23e
00000260: 4474 673d 28af 9ebc e6c5 06be ef6e fb3c
00000270: 552b 4bbd bd04 19bd a653 133d df70 19bc
00000280: fde0 213d 687c eebc 344f 94bd 6cab 123e
00000290: 709b 07be fb85 f63d 7ef8 c03b 6139 733b
000002a0: c375 1a3c 0cdf b63b c5a9 ae3c 3b31 4bbd
000002b0: 1660 a3bd 0e35 2abe dc0e 6c3e 9da9 653c
000002c0: fabd dcbd ac35 64bd 5bd8 e93d 6b56 413d
000002d0: 6595 a23d fc9c 8f3d 94ed ddbd 227d 513e
000002e0: f515 e1bd 716a 0cbe 7443 1f3e 868d bd3c
000002f0: 7f0a 10bc 45bb febd 8cd9 1c3c ec26 473d
00000300: dad8 7fbe 05ce e93d c109 83bd 3010 0bbe
00000310: 4c5e 973d 48ed ba3d bf64 f5bd 7f2f 3dbd
00000320: 55b4 563d 5603 0abd a0e8 1a3d d52c c43d
00000330: a051 b4bd 2a06 a43c 7282 143d c6e3 8bbe
00000340: 0dee 093e 9d4c 27be ea26 bebd f6d6 153d
00000350: 5546 3c3e f92a 963d 57b0 dabc 76ba ba3c
00000360: 0932 7ebe 04ad aabd 8f37 833e 9808 46bd
00000370: 233f 86bd 4233 c63c 9586 c4bd be47 94bd
00000380: 0116 4b3b e71f c33d 337f 0f3e 8a5a 233d
00000390: 73f6 f2bb 1190 c83b 50a8 9abe b3ea 963c
000003a0: e271 363d c19e 173d a202 cdbd fbcf 28be
000003b0: a4fe 2bbd f403 85be a865 733d 8e8e febd
000003c0: c8a2 1ebd 5505 44be ea97 5dbd 061f 0d3e
000003d0: f138 873d eee0 103d bd65 e13c 9ae6 c63b
000003e0: b655 a63d 7756 0fbd 0ef4 85bd f5f9 89bc
000003f0: 0a9a d13c f978 8fbd d34c ca3d 21aa 66bd
-0.06522866 -0.022116164 -0.036668956 0.052107133 0.036780767 0.06715765 0.10552445 0.06453544
0.024577225 -0.23985201 0.014408232 -0.017276023 0.1463051 0.17495282 0.15345709 -0.057835948
0.013858452 0.08476362 0.090365335 0.15899427 0.20653816 -0.14692374 -0.07625054 -0.0043300968
0.23840152 0.112752065 -0.13223898 -0.047880262 -0.047182936 0.047830764 -0.12612355 -0.059611958
0.09684195 -0.0971633 0.16223612 -0.042382523 -0.13402675 -0.101688534 0.054416634 -0.20609552
-0.124592334 -0.0070538744 0.15950075 -0.119904 0.12378733 -0.09689166 -0.0063619153 0.03513443
-0.1125493 -0.027917007 -0.015733304 0.025789155 0.054582216 0.1581979 0.012238336 -0.22063029
0.014077355 0.07462587 -0.21137677 -0.111307584 -0.095272824 0.043915138 0.06979151 0.03379193
0.00075113587 -0.06693806 0.25698778 0.022091439 -0.114184335 0.03128053 -0.10276964 -0.09839877
0.14966042 -0.2056433 -0.115110375 -0.15874389 0.050638873 0.0102093695 -0.0038692968 0.024243962
0.11021066 0.04897306 0.025524626 -0.1884425 0.13269891 0.19838068 0.11119801 0.0833469
-0.06168161 -0.02816081 0.12118956 0.11218819 0.107350215 -0.035755917 0.007509015 0.016631756
-0.14673284 -0.21571013 0.055456966 -0.037041564 0.018989673 0.1585592 0.017121831 -0.07937596
0.031757798 0.09522084 0.06868772 0.08909497 0.07083738 0.057557672 -0.09947715 -0.2739811
0.18532956 -0.027297597 -0.06441185 0.062267922 -0.21587436 0.12642238 -0.24624868 0.022990732
-0.0081200255 0.15085778 0.12905236 0.032091614 -0.023573829 0.08310769 -0.03563765 -0.070108786
0.022249745 0.043652736 -0.03060554 -0.13945259 -0.030911982 -0.016279299 -0.2569069 -0.13932002
0.083162576 -0.05750618 -0.1014704 0.09173241 -0.23417152 0.21167423 0.27724952 0.032099273
0.06604389 -0.05390606 0.14209163 0.04380612 0.08091552 -0.035299234 -0.12225813 0.34897807
0.056507364 -0.01937063 -0.1316143 0.030692546 -0.04960187 -0.037358034 0.035968445 -0.0093652895
0.039521206 -0.029112056 -0.07241669 0.14323205 -0.13242888 0.120372735 0.0058889976 0.0037113058
0.009427491 0.0055807885 0.021321187 -0.049607497 -0.07977311 -0.16621801 0.23052543 0.01401749
-0.10778423 -0.055715248 0.1141822 0.047201555 0.07938651 0.07012364 -0.1083633 0.2045789
-0.10990516 -0.13712479 0.15553075 0.023138773 -0.008791565 -0.124380626 0.009573352 0.048621103
-0.24985066 0.11416248 -0.06398345 -0.13580394 0.073910326 0.09127289 -0.119821064 -0.046187874
0.05241807 -0.033694588 0.037819505 0.095788635 -0.08804631 0.02002247 0.036257215 -0.27322215
0.13469715 -0.1633782 -0.09284766 0.036581956 0.18386205 0.07332415 -0.026695414 0.02279399
-0.24823774 -0.08333781 0.25628325 -0.04834804 -0.06555011 0.024194364 -0.09595982 -0.07240246
0.0030988457 0.09527569 0.14013366 0.039881267 -0.007414633 0.0061206897 -0.30206537 0.01842246
0.0445422 0.037016634 -0.10010268 -0.16485588 -0.04199089 -0.25979578 0.05942312 -0.12429534
-0.03872946 -0.19142659 -0.054099955 0.13781366 0.066026576 0.03537076 0.027514333 0.0060699703
0.08121817 -0.03499457 -0.0654069 -0.016842822 0.025586147 -0.070054956 0.09877934 -0.05631459
