backend/saved/BPR-Jan-26-2023_09-22-55.pth (torch, 826233 bytes, 1 tensors)

user_embedding.weight f4 [77, 64]
0	0xbd85969b	-0.06522866
1	0xbcb52cf5	-0.022116164
2	0xbd163230	-0.036668956
3	0x3d556e4a	0.052107133
4	0x3d16a76e	0.036780767
5	0x3d8989f3	0.06715765
6	0x3dd81d34	0.10552445
7	0x3d842b28	0.06453544
8	0x3cc9562d	0.024577225
9	0xbe759bc4	-0.23985201
10	0x3c6c1081	0.014408232
11	0xbc8d8672	-0.017276023
12	0x3e15d101	0.1463051
13	0x3e3326d5	0.17495282
14	0x3e1d23db	0.15345709
15	0xbd6ce563	-0.057835948
16	0x3c630e90	0.013858452
17	0x3dad988c	0.08476362
18	0x3db91176	0.090365335
19	0x3e22cf65	0.15899427
20	0x3e537ebd	0.20653816
21	0xbe16732d	-0.14692374
22	0xbd9c293e	-0.07625054
23	0xbb8de37c	-0.0043300968
24	0x3e741f87	0.23840152
25	0x3de6ea8e	0.112752065
26	0xbe0769a8	-0.13223898
27	0xbd441e18	-0.047880262
28	0xbd4142e5	-0.047182936
29	0x3d43ea31	0.047830764
30	0xbe012688	-0.12612355
31	0xbd742bab	-0.059611958
32	0x3dc65513	0.09684195
33	0xbdc6fd8d	-0.0971633
34	0x3e26213a	0.16223612
35	0xbd2d994c	-0.042382523
36	0xbe093e4f	-0.13402675
37	0xbdd04214	-0.101688534
38	0x3d5ee3fa	0.054416634
39	0xbe530ab4	-0.20609552
40	0xbdff2a44	-0.124592334
41	0xbbe72430	-0.0070538744
42	0x3e23542a	0.15950075
43	0xbdf5903a	-0.119904
44	0x3dfd8436	0.12378733
45	0xbdc66f22	-0.09689166
46	0xbbd0779d	-0.0063619153
47	0x3d0fe91f	0.03513443
48	0xbde6803f	-0.1125493
49	0xbce4b235	-0.027917007
50	0xbc80e321	-0.015733304
51	0x3cd343c7	0.025789155
52	0x3d5f919a	0.054582216
53	0x3e21fea1	0.1581979
54	0x3c48834d	0.012238336
55	0xbe61ece8	-0.22063029
56	0x3c66a4b5	0.014077355
57	0x3d98d573	0.07462587
58	0xbe587327	-0.21137677
59	0xbde3f53b	-0.111307584
60	0xbdc31e66	-0.095272824
61	0x3d33e05c	0.043915138
62	0x3d8eeeda	0.06979151
63	0x3d0a6968	0.03379193
64	0x3e074121	0.13208438
65	0xbe6466e5	-0.22304876
66	0x3ef8aa73	0.48567542
67	0xbc3b93e4	-0.011448834
68	0xbe83edae	-0.25767273
69	0x3e1a1e2c	0.15050572
70	0xbe9465df	-0.2898397
71	0xbe921af3	-0.28536186
72	0x3eb47901	0.3524857
73	0xbed98a9f	-0.42488572
74	0xbea651e7	-0.32484362
75	0xbebddfb8	-0.37084746
76	0x3e63bb18	0.2223934
77	0x3dd1d637	0.10245936
78	0xbe214ddc	-0.15752357
79	0x3e22a641	0.15883733
80	0x3ea30d9f	0.3184633
81	0x3e5b2c85	0.21403702
82	0x3e27b5c5	0.16377933
83	0xbed785c2	-0.42094237
84	0x3e939ae2	0.28829104
85	0x3ecb9008	0.39758325
86	0x3ea0f110	0.31433916
87	0x3e779eba	0.24181643
88	0xbe5cb4e0	-0.21553373
89	0xbda4a265	-0.08038787
90	0x3ea4590d	0.3209919
91	0x3e922e70	0.28551054
92	0x3e80b50c	0.25138128
93	0xbe5a3595	-0.21309502
94	0x3d82d3e0	0.06388068
95	0xbd4e14a0	-0.05031264
96	0xbeab9830	-0.33514547
97	0xbed8697b	-0.42267975
98	0x3e0b3347	0.1359378
99	0xbe28d785	-0.16488464
100	0x3ddab67e	0.10679339
101	0x3eca2d03	0.39487466
102	0x3e0a0c59	0.13481273
103	0xbe905286	-0.2818796
104	0x3e66070c	0.22463626
105	0x3e8ee4ae	0.27908844
106	0x3e6f5565	0.23372419
107	0x3e8d5090	0.27600527
108	0x3e55a4fc	0.20863718
109	0x3e3d45d7	0.18483673
110	0xbe95ea62	-0.29280382
111	0xbf01c54d	-0.5069168
112	0x3ec90e7e	0.3926887
113	0xbde41955	-0.11137644
114	0xbe2ace6c	-0.16680306
115	0x3e8bc2e4	0.27297127
116	0xbedf5773	-0.43621406
117	0x3e89cb23	0.26912794
118	0xbeef2a14	-0.4671179
119	0x3e31f9ee	0.17380497
120	0xbda44190	-0.080203176
121	0x3eb95a44	0.3620168
122	0x3eb16480	0.34646988
123	0x3e4c6b48	0.199628
124	0xbcc44772	-0.023959849
125	0x3e303adb	0.17209952
126	0xbdb18a90	-0.08669007
127	0xbe85d75a	-0.26140863
128	0x3c8a31e3	0.016869491
129	0x3d8f7c78	0.070061624
130	0xbd8cedca	-0.06881292
131	0xbe22b10c	-0.1588785
132	0xbca29e91	-0.019851001
133	0x3ce9f025	0.028556893
134	0xbe93a6ed	-0.28838292
135	0xbe3b4833	-0.1828926
136	0x3d870b59	0.06593961
137	0xbd9f3a53	-0.07774796
138	0xbda07852	-0.07835449
139	0x3dd171c3	0.102267765
140	0xbe77ff34	-0.24218446
141	0x3e588f1a	0.21148339
142	0x3ea3b108	0.31971002
143	0x3d3fa8cd	0.04679184
144	0x3dbcffaa	0.092284516
145	0xbda3fc1e	-0.08007072
146	0x3e0ac2d8	0.1355089
147	0x3dafc9b6	0.08583395
148	0x3cb40f66	0.021979999
149	0xbbf48fc0	-0.0074634254
150	0xbdb913ce	-0.090369806
151	0x3eacb5d0	0.33732462
152	0x3cea646d	0.02861234
153	0xbd78349e	-0.060597055
154	0xbe2bd324	-0.16779763
155	0x3d6dd7ad	0.058067013
156	0xbda0d4ed	-0.07853112
157	0xbd4d1a1a	-0.05007372
158	0x3b97a7ec	0.004628172
159	0xbcdae7f2	-0.026721928
160	0x3c4d88af	0.012544795
161	0xbd2538b0	-0.040337265
162	0xbd4862cb	-0.04892234
163	0x3e01184d	0.12606926
164	0xbe490d84	-0.19634062
165	0x3e2dfccb	0.16990964
166	0x3d20d1ff	0.039262768
167	0x3d117ddf	0.03552043
168	0xbbb975a6	-0.0056597767
169	0xbc89a278	-0.016801104
170	0x3d164843	0.036690008
171	0xbd88676e	-0.06660353
172	0xbdc88cce	-0.09792481
173	0xbe580afa	-0.21097937
174	0x3e432cee	0.19060108
175	0xbba6426f	-0.0050738375
176	0xbde638ce	-0.112413034
177	0x3d5d8ee1	0.054091338
178	0x3e2debc2	0.16984466
179	0x3daed059	0.08535833
180	0x3d5d4165	0.054017443
181	0x3d23d3f3	0.039997052
182	0xbe0caf06	-0.13738641
183	0x3e6db868	0.23214877
184	0xbde001cd	-0.109378435
185	0xbe0e37e8	-0.13888514
186	0x3e39508b	0.18097131
187	0xbbec0ac1	-0.0072034304
188	0x3d1cbe50	0.038267434
189	0xbdcae763	-0.09907415
190	0x3d29bd23	0.04144014
191	0x3ca9a449	0.02070822
192	0xbeb295f1	-0.3488002
193	0x3df8b986	0.12144761
194	0xbda6c8ac	-0.08143744
195	0xbe0ede23	-0.13951926
196	0x3e462c67	0.19352876
197	0x3e472a2d	0.19449683
198	0xbd728470	-0.059208333
199	0xbd9420f5	-0.072328486
200	0x3e188cf3	0.14897518
201	0xbda47c5b	-0.080315314
202	0x3cd1d11c	0.025612406
203	0x3dcdad40	0.100428104
204	0xbe40d0c8	-0.18829644
205	0x3d1d8fcb	0.03846721
206	0x3cae5f8b	0.021285793
207	0xbebca1aa	-0.3684209
208	0x3e14595c	0.14487213
209	0xbe3fd95c	-0.1873526
210	0xbe4cf8d9	-0.20016803
211	0x3d9eb813	0.07749953
212	0x3e70d829	0.23519959
213	0xbcacf295	-0.021111766
214	0xbde0cd80	-0.10976696
215	0xbc8191ea	-0.015816648
216	0xbea1cbe7	-0.31600878
217	0xbbe572af	-0.0070021967
218	0x3e977647	0.29582426
219	0xbd25100e	-0.040298514
220	0xbe21cbac	-0.15800351
221	0xbd5411b7	-0.051774707
222	0xbe0e1424	-0.1387487
223	0xbddc42bb	-0.10754915
224	0xbc87ce96	-0.016578
225	0x3e3a87f2	0.18215922
226	0x3dc69f76	0.096983835
227	0x3d5e8ac8	0.05433157
228	0x3dd12eb0	0.10213983
229	0x3c040ab7	0.008059195
230	0xbed51d2b	-0.41623816
231	0x3c024616	0.00795128
232	0x3dc36d31	0.09542311
233	0x3db9410f	0.09045612
234	0xbe0473d6	-0.12934813
235	0xbe630e9b	-0.2217354
236	0xbd0221a0	-0.03177035
237	0xbea6376b	-0.32464156
238	0xbbc954f7	-0.006144162
239	0xbe28d238	-0.16486442
240	0xbe361a8a	-0.17783561
241	0xbe89b962	-0.26899248
242	0xbd0e21ea	-0.03470031
243	0x3e6d637a	0.23182479
244	0x3e194b0b	0.14970033
245	0x3e0aa61c	0.13539928
246	0x3cbcf226	0.023064684
247	0x3ca4f8e2	0.020138208
248	0x3e2c42ab	0.16822307
249	0xbd718ff1	-0.058975164
250	0xbd6d7357	-0.057971325
251	0x3cf71b34	0.030164339
252	0x3da58957	0.08082836
253	0xbe220552	-0.15822342
254	0x3d19a56b	0.03751127
255	0x3ca028f2	0.019550774
