backend/saved/BPR-Jan-26-2023_09-25-41.pth (torch, 826233 bytes, 1 tensors)

user_embedding.weight f4 [77, 64]
-0.06522866 -0.022116164 -0.036668956 0.052107133 0.036780767 0.06715765 0.10552445 0.06453544
0.024577225 -0.23985201 0.014408232 -0.017276023 0.1463051 0.17495282 0.15345709 -0.057835948
0.013858452 0.08476362 0.090365335 0.15899427 0.20653816 -0.14692374 -0.07625054 -0.0043300968
0.23840152 0.112752065 -0.13223898 -0.047880262 -0.047182936 0.047830764 -0.12612355 -0.059611958
0.09684195 -0.0971633 0.16223612 -0.042382523 -0.13402675 -0.101688534 0.054416634 -0.20609552
-0.124592334 -0.0070538744 0.15950075 -0.119904 0.12378733 -0.09689166 -0.0063619153 0.03513443
-0.1125493 -0.027917007 -0.015733304 0.025789155 0.054582216 0.1581979 0.012238336 -0.22063029
0.014077355 0.07462587 -0.21137677 -0.111307584 -0.095272824 0.043915138 0.06979151 0.03379193
0.09607518 -0.18685906 0.4389357 -0.0051069343 -0.22570115 0.12095855 -0.24573243 -0.24233314
0.30596152 -0.38026825 -0.27672923 -0.32954755 0.18647283 0.08166325 -0.11544082 0.12526177
0.2740424 0.17188083 0.13440594 -0.37479696 0.2528758 0.35206872 0.26941505 0.20283072
-0.17938447 -0.06509308 0.27790427 0.24701725 0.21177785 -0.16758814 0.047708128 -0.030890796
-0.29024664 -0.37916693 0.112337895 -0.13267848 0.087323785 0.3488917 0.10461045 -0.23458388
0.18209253 0.23706312 0.20085643 0.23708762 0.17436358 0.15165396 -0.24725866 -0.45860475
0.34968755 -0.084239975 -0.1446071 0.22261162 -0.3916754 0.23745914 -0.42201766 0.14705583
-0.05772858 0.31460124 0.30326438 0.15881039 -0.029044084 0.14754938 -0.0672578 -0.21637398
0.016933192 0.053904213 -0.058304466 -0.16752417 -0.02756238 0.015029079 -0.2842363 -0.16614842
0.06379545 -0.06516585 -0.07122446 0.10593066 -0.23367615 0.20465691 0.30477738 0.03445125
0.076512374 -0.077452116 0.13359691 0.07606865 0.033114046 -0.018720746 -0.101544425 0.3278602
0.039868794 -0.046896774 -0.16070162 0.05340392 -0.06443799 -0.051049914 0.012391253 -0.015477841
0.014402661 -0.052148577 -0.057626475 0.13025 -0.18158683 0.15436007 0.028665915 0.033482946
0.0027679978 -0.003785371 0.02262108 -0.0705438 -0.10401532 -0.1950652 0.20090629 0.009342576
-0.110808276 0.035020433 0.15106045 0.070221104 0.06759129 0.04879203 -0.12819614 0.21633525
-0.11492654 -0.14995626 0.16833772 0.0049065277 0.023121327 -0.1080001 0.028560236 0.030328019
-0.33892837 0.1131474 -0.07056743 -0.14219084 0.17944622 0.18277572 -0.06566569 -0.07590922
0.13383979 -0.08265151 0.023750268 0.09588941 -0.17560753 0.040366236 0.017530156 -0.35732353
0.1340874 -0.18209592 -0.18428625 0.06822835 0.2294004 -0.0077042896 -0.100966915 -0.014543458
-0.31251836 -0.015324138 0.2900394 -0.041842684 -0.14659481 -0.04588042 -0.13563845 -0.10622137
-0.019162448 0.16966268 0.0979772 0.042533964 0.08904502 0.015787652 -0.4042985 0.0034455275
0.09176325 0.08128727 -0.12866966 -0.20962246 -0.024009457 -0.31036404 -0.004032812 -0.16185394
-0.16259666 -0.2620405 -0.03746353 0.21999143 0.1373434 0.12724896 0.026439741 0.018917317
0.15636677 -0.061747994 -0.05941622 0.026015002 0.072806366 -0.15168779 0.042597964 0.005297219
00000000: 9b96 85bd f52c b5bc 3032 16bd 4a6e 553d
00000010: 6ea7 163d f389 893d 341d d83d 282b 843d
00000020: 2d56 c93c c49b 75be 8110 6c3c 7286 8dbc
00000030: 01d1 153e d526 333e db23 1d3e 63e5 6cbd
00000040: 900e 633c 8c98 ad3d 7611 b93d 65cf 223e
00000050: bd7e 533e 2d73 16be 3e29 9cbd 7ce3 8dbb
00000060: 871f 743e 8eea e63d a869 07be 181e 44bd
00000070: e542 41bd 31ea 433d 8826 01be ab2b 74bd
00000080: 1355 c63d 8dfd c6bd 3a21 263e 4c99 2dbd
00000090: 4f3e 09be 1442 d0bd fae3 5e3d b40a 53be
000000a0: 442a ffbd 3024 e7bb 2a54 233e 3a90 f5bd
000000b0: 3684 fd3d 226f c6bd 9d77 d0bb 1fe9 0f3d
000000c0: 3f80 e6bd 35b2 e4bc 21e3 80bc c743 d33c
000000d0: 9a91 5f3d a1fe 213e 4d83 483c e8ec 61be
000000e0: b5a4 663c 73d5 983d 2773 58be 3bf5 e3bd
000000f0: 661e c3bd 5ce0 333d daee 8e3d 6869 0a3d
00000100: 10c3 c43d fb57 3fbe 2ebc e03e 1258 a7bb
00000110: 341e 67be 1eb9 f73d 48a1 7bbe 2e26 78be
00000120: fda6 9c3e 85b2 c2be 74af 8dbe 75ba a8be
00000130: bcf2 3e3e 103f a73d 3d6c ecbd 9f44 003e
00000140: 494f 8c3e 8701 303e b6a1 093e 63e5 bfbe
00000150: f078 813e 5a42 b43e c5f0 893e dbb2 4f3e
00000160: 90b0 37be 854f 85bd 7849 8e3e 17f2 7c3e
00000170: 4bdc 583e 3a9c 2bbe 9969 433d b20e fdbc
00000180: 359b 94be 2b22 c2be 6911 e63d dedc 07be
00000190: d0d6 b23d efa1 b23e 013e d63d c236 70be
000001a0: 7776 3a3e adc0 723e 4fad 4d3e 19c7 723e
000001b0: 5e8c 323e 2d4b 1b3e 6031 7dbe 3ece eabe
000001c0: 3f0a b33e 0286 acbd e213 14be 4df4 633e
000001d0: ae89 c8be 7d28 733e b312 d8be ce95 163e
000001e0: ce74 6cbd 6a13 a13e 7845 9b3e 319f 223e
000001f0: dced edbc 2f17 173e 75be 89bd 2491 5dbe
00000200: 7ab7 8a3c aaca 5c3d aad0 6ebd 758b 2bbe
00000210: 80ca e1bc 873c 763c 6c87 91be d022 2abe
00000220: 30a7 823d ac75 85bd 21de 91bd 2df2 d83d
00000230: cd48 6fbe 9591 513e c80b 9c3e c11c 0d3d
00000240: 85b2 9c3d 379f 9ebd a1cd 083e e1c9 9b3d
00000250: 98a2 073d 405c 99bc 86f6 cfbd 4bdd a73e
00000260: 764d 233d d516 40bd f78e 24be 12be 5a3d
00000270: 11f8 83bd b719 51bd af04 4b3c c596 7dbc
00000280: 23f9 6b3c bf99 55bd bd09 6cbd 4260 053e
00000290: e6f1 39be 9110 1e3e c8d4 ea3c 6a25 093d
000002a0: 4c67 353b fd13 78bb d84f b93c 4579 90bd
000002b0: fc05 d5bd 2cbf 47be 61ba 4d3e 9b11 193c
000002c0: 73ef e2bd 9671 0f3d 97af 1a3e 15d0 8f3d
000002d0: 4d6d 8a3d 27da 473d d945 03be fd86 5d3e
000002e0: 9b5e ebbd 228e 19be b960 2c3e f0c6 a03b
000002f0: f068 bd3c 282f ddbd 28f7 e93c 7772 f83c
00000300: 0588 adbe d3b9 e73d a885 90bd 7a9a 11be
00000310: c0c0 373e 8f29 3b3e bc7b 86bd 4b76 9bbd
00000320: 4c0d 093e 3245 a9bd ec8f c23c ab61 c43d
00000330: 76d2 33be 1157 253d 679b 8f3c 1cf3 b6be
00000340: 354e 093e 5a77 3abe 89b5 3cbe 4ebb 8b3d
00000350: f0e7 6a3e 4474 fcbb bec7 cebd af47 6ebc
00000360: 6802 a0be 1812 7bbc 0b80 943e 3c63 2bbd
00000370: f31c 16be 1bed 3bbd cee4 0abe 978a d9bd
00000380: 91fa 9cbc 0ebc 2d3e 45a8 c83d 1838 2e3d
00000390: 3c5d b63d 1b55 813c 3700 cfbe 5cce 613b
000003a0: 5fee bb3d f179 a63d fbc1 03be 45a7 56be
000003b0: 7baf c4bc 09e8 9ebe ae25 84bb 0abd 25be
000003c0: bd7f 26be 2c2a 86be 5c73 19bd 6f45 613e
000003d0: c0a3 0c3e 8d4d 023e 2898 d83c 7df8 9a3c
000003e0: 9c1e 203e 77eb 7cbd 6c5e 73bd 6a1d d53c
000003f0: 811b 953d 0b54 1bbe 347b 2e3d 4b94 ad3b
